LAB1/checkpoint_perceptron_1_layer.pth (torch, 33253 bytes, 2 tensors)

linear.weight f4 [10, 784]
000000 37 fd a6 3c b7 b6 b7 3a 97 59 be bc aa b1 c1 3c
       0.020384414 0.0014016245 -0.02323608 0.023644287
000010 17 fc 56 3c f3 24 91 3c e5 47 04 bc 2a 41 02 bd
       0.013121626 0.017717814 -0.008073782 -0.031800427
000020 b3 43 3a bc 01 63 42 bc b8 1d 6f 39 7c 9f 7b bc
       -0.01136868 -0.011864425 0.00022803887 -0.015357848
000030 15 7f f8 3c 08 d6 f2 bc f2 a7 15 3b a4 5e b6 bc
       0.030334035 -0.029643074 0.00228357 -0.022261925
000040 35 e2 c4 bc 47 50 c0 3c 77 42 ba bc f3 bd bb 3c
       -0.024033645 0.02347578 -0.022736771 0.022917723
000050 5a 62 b0 bc 45 aa 07 3d 25 17 88 bb 4a c3 b5 3c
       -0.021531273 0.033121366 -0.0041531497 0.022187848
000060 87 26 b1 bc 0c a0 c4 3c e5 5c ae 3c 0a 61 79 3c
       -0.021624817 0.024002098 0.02128453 0.01522089
000070 d6 15 08 3d 01 89 6d 3c 97 91 cb bc 9a d2 b8 bc
       0.03322395 0.014497996 -0.024849696 -0.02256136
000080 e2 41 a6 3b 51 2a a1 bc 11 5c c8 3b d9 26 14 3c
       0.005073772 -0.019673498 0.006114491 0.009042465
000090 27 7c 0a 3d 38 55 8a 3c fc 10 83 3c 5a 28 79 bc
       0.033809807 0.016886339 0.01599931 -0.0152073745
0000a0 1c 5a 24 3a 0d 6e 07 bd 2e 72 40 3c 4b 00 c3 3c
       0.0006269531 -0.033063937 0.011745973 0.02380385
0000b0 85 54 b8 3c 1f bc 0e bd 85 40 1a 3c 86 cd 47 3c
       0.02250124 -0.034847375 0.009414797 0.012194997
0000c0 f9 a6 08 3d c1 74 3a 3c 73 79 e8 bb 89 bc 0a 3d
       0.033362363 0.011380375 -0.007094556 0.033871207
0000d0 4c e5 00 bd 13 85 b5 3c 97 c9 8b bc fb 5c 00 3d
       -0.031468675 0.022158181 -0.017063899 0.031338673
0000e0 e5 14 58 3c 3a 95 ed bc 66 e2 04 3d 11 5a 82 bb
       0.013188575 -0.02900182 0.032442473 -0.003978022
0000f0 37 89 71 3c 35 5a 0f 3c b0 06 e1 bb 9f ee b8 bc
       0.014742187 0.008749534 -0.0068672523 -0.02257472
000100 7b cb f2 3c f3 94 d6 3c f4 8a 86 bc a3 fa af 3c
       0.029638043 0.026194071 -0.01642368 0.021481818
000110 9c bb 09 bd fd e1 89 bc 4c 08 a5 3c 6b ac bb bc
       -0.033626184 -0.016831392 0.020145558 -0.022909364
000120 d6 f7 0b bd cd 90 52 bb 96 3f f1 bb 81 b1 69 3c
       -0.0341719 -0.0032129765 -0.0073623164 0.014263512
000130 75 05 0f 3b f8 47 76 bc 94 eb 92 bb 63 0c 71 3c
       0.002182332 -0.015031807 -0.0044836495 0.014712426
000140 2a 05 99 bc e6 2d 07 bd e7 ec 85 3c 11 63 c6 bc
       -0.01867922 -0.033002757 0.016348315 -0.02421716
000150 17 47 23 3c ee d6 df bc 5b 49 d8 bb c8 35 2c 3c
       0.00996568 -0.027324166 -0.0066005415 0.010510869
000160 6c 95 0e bb c3 ff 1d 3c 05 d9 0a bc ef 87 a6 bc
       -0.0021756543 0.009643498 -0.008474593 -0.02032849
000170 17 fc 06 bd 58 21 d1 bc ef 9e 01 bd af 33 6b 3c
       -0.032955255 -0.025528595 -0.03164571 0.014355584
000180 5a 91 44 3c 8e fe f5 bc a1 4a 7f bd 01 85 86 bc
       0.011997545 -0.030028608 -0.06232703 -0.016420843
000190 5c 85 43 bd 8d c4 49 bd 32 bc 76 bd cd 6c a0 3b
       -0.047734603 -0.04925971 -0.06023807 0.0048957826
0001a0 0c ca e0 3b 7f 28 8c bc f2 c2 84 3c 75 80 28 bc
       0.0068600234 -0.017109154 0.016206238 -0.010284533
0001b0 02 64 f4 3b 07 b0 10 3d 93 8b 06 bd b3 3a 38 3c
       0.007458211 0.035324123 -0.032847952 0.011244464
0001c0 25 d7 46 bb 84 22 17 3b 79 04 0b bb a9 6d f2 3c
       -0.0030340638 0.0023061344 -0.0021212383 0.029593306
0001d0 40 2c f1 3c 2e b3 a7 3c 9a bd 8e bc 61 3b b8 3c
       0.029440045 0.020471182 -0.017424393 0.022489252
0001e0 0c 6c 22 bd f8 b1 52 bd a6 6e 34 bc 5b 7d 31 bc
       -0.039653823 -0.051439255 -0.011012709 -0.01083311
0001f0 ea dd 91 ba 8b 71 c3 bb f0 1c 66 3b a2 d8 02 3d
       -0.0011128758 -0.005964463 0.0035112463 0.03194488
000200 bb e1 f6 bc 9e ca b1 bb c4 6b 8b 3c 7a ef 43 bd
       -0.030136934 -0.005425765 0.01701916 -0.047835805
000210 ff ce 51 bd ee 05 1d 3b b9 7d 36 bd fc 9c cb bc
       -0.051222797 0.0023959833 -0.044553492 -0.02485513
000220 b7 5b 81 3c 36 d3 17 bc bb 8a 14 3b 04 ee e8 3c
       0.015790803 -0.009266665 0.0022665698 0.028433807
000230 ae 08 f9 3b 4b da 10 bd 91 95 75 3c 08 e0 1b bc
       0.0075999117 -0.03536443 0.014989273 -0.009513862
000240 3d 4c 88 bc d7 bf 98 3b 42 8a 03 bd ec 1a d9 bc
       -0.016637916 0.004661541 -0.032114275 -0.026502095
000250 1f 53 a5 bc 24 74 c4 bc e1 84 b4 bc 23 e0 07 bd
       -0.020181237 -0.023981161 -0.022036018 -0.033172738
000260 e1 d4 1b 3d 5a f8 63 3c 3f 22 7e 3d 73 13 ba 3d
       0.038044814 0.013914192 0.06204438 0.09085741
000270 bc 89 e2 3d 97 ad 90 3d 2f 51 a3 3d 5f 96 8d 3c
       0.11061427 0.0706436 0.07974469 0.017283617
000280 54 0f 6a 3c e0 18 6d ba 25 53 b9 bc 9a df d8 bc
       0.014285881 -0.0009044539 -0.022622654 -0.026473809
000290 bd 8d 12 bc 5d 85 83 3c 7e 7b cd 3b fd 57 d4 bc
       -0.008944926 0.016054804 0.006270825 -0.025920862
0002a0 fa bf 81 bc 4e 0a 40 3a 49 10 bb bc 33 f7 86 bc
       -0.015838612 0.0007325754 -0.022834914 -0.016475296
0002b0 be 62 b3 3c 56 3f 50 3c 87 69 c2 bc 85 0d 32 bd
       0.02189767 0.012710413 -0.02373196 -0.043469924
0002c0 87 65 ad bc 1a 6c 8a bd 70 1a 29 bd 57 38 70 3c
       -0.021166576 -0.067589 -0.04128498 0.01466187
0002d0 7f 01 41 bc 8f bf d9 3c af 79 2c 3d 82 ff fd 3d
       -0.011780142 0.0265806 0.042108234 0.1240225
0002e0 5a 76 b0 3d 61 a5 00 3e 17 c0 f5 3d 81 b6 50 3d
       0.08616324 0.12563087 0.11999529 0.0509553
0002f0 5d 02 d7 3c ae b5 a6 3c 94 a6 33 bc a1 15 e1 bc
       0.026246244 0.020350304 -0.010965008 -0.027476134
000300 70 87 ba bc 29 32 32 bd d8 b7 13 3c 14 9a 0f bc
       -0.02276966 -0.043504868 0.009016 -0.008764762
000310 0a 7c 10 3b f2 eb 94 3c 77 44 d4 bc 59 81 de 3c
       0.002204659 0.018178914 -0.025911553 0.027161287
000320 72 eb 2a bd 43 08 82 3c c0 1c 77 bc 27 e1 74 bd
       -0.041728444 0.01587308 -0.015082538 -0.059785035
000330 68 40 2e bd 13 4c 2f bd 3e 62 c5 bc ac be 01 3d
       -0.04254189 -0.04279716 -0.024094697 0.03167598
000340 27 48 07 3d 02 4e 02 3d b4 c8 a7 3d 94 1d 93 3d
       0.033027794 0.031812675 0.08192578 0.07183376
000350 86 d8 b0 3d 16 00 df 3d 79 f8 13 3e 36 d8 cc 3d
       0.086350486 0.10888688 0.14450254 0.100021765
000360 a7 d4 1c 3d 4e 9e 77 3c 8b b8 f4 3c 61 09 84 3c
       0.03828874 0.015113426 0.029873153 0.016117753
000370 f3 74 2c bd 9a b4 a5 bb 59 5b 1c bd a0 de 96 bc
       -0.04210372 -0.00505693 -0.038173053 -0.018416703
000380 fa f1 9c bc 66 f9 eb bc 8f df d3 ba c5 bc 1d 3c
       -0.019158352 -0.028805446 -0.0016164648 0.009627526
000390 c3 56 17 3c cc 09 57 bc 85 ed 22 bd cc 58 7d bd
       0.009236994 -0.013124894 -0.039777298 -0.06185226
0003a0 40 1b 56 ba 8d 8a 09 bb f0 56 1e bd 80 bd d5 3c
       -0.0008167513 -0.0020987124 -0.03865713 0.026091337
0003b0 53 f2 57 3d 9e 84 10 3d e3 52 65 3d 82 c1 2a 3d
       0.052721333 0.035282724 0.05598725 0.04168845
0003c0 26 56 bb 3d 61 08 01 3e 6a f1 c7 3d 7c 5e 00 3e
       0.09147291 0.12600853 0.09762843 0.12536043
0003d0 c8 db aa 3d ed 15 c7 3c 88 15 ef 3c f2 49 4a bb
       0.08342701 0.024302447 0.029185072 -0.0030866829
0003e0 9c 7b 42 ba 6a c2 0f bc db 2f 44 bc f2 96 0f 3d
       -0.0007418932 -0.008774379 -0.0119743 0.035056062
0003f0 ac 16 a5 3c 89 c2 fd bb 9f c0 20 3a e8 25 ba 3c
       0.020152412 -0.0077441377 0.00061322184 0.022723153

linear.bias f4 [10]
000000 81 bc de bd cf 12 60 3e f4 c8 50 bd 19 22 a1 bd
       -0.10875798 0.21882175 -0.050972894 -0.07867832
000010 57 42 8a 3d c2 f7 74 3e 3f 94 33 bd 67 b2 2d 3e
       0.067509346 0.23922637 -0.04384255 0.16962586
000020 03 ef ab be 40 8c 66 bd
       -0.3358079 -0.056286097
