LAB1/checkpoint_perceptron_3_layer.pth (torch, 943253 bytes, 6 tensors)

fc1.weight f4 [256, 784]
000000 55 44 b5 3c 07 83 c2 bc 75 39 ae bc 80 d4 20 3b
       0.02212731 -0.02374412 -0.021267632 0.0024540722
000010 30 1c a6 3c bc 26 9d bc ca 5b 9b 3b 05 eb 48 3c
       0.020277113 -0.019183509 0.0047411667 0.012263064
000020 33 84 1b bc 0d 80 04 3d 0e 9d be 3c 87 a8 93 3c
       -0.009491968 0.03234868 0.023268249 0.018024696
000030 2a 22 f5 bc d2 08 db bc 7c 28 d7 3c 6f 0a 03 3d
       -0.029923517 -0.026737604 0.026264422 0.031992372
000040 25 44 f7 bb 0e 6c ca 3c 03 b3 bc bc 93 0b 5c bc
       -0.0075459653 0.024709728 -0.023034578 -0.013430494
000050 ca ce 3d bb 65 0a 12 3d 7e ac 8c bc a5 82 45 bb
       -0.0028962367 0.035654444 -0.017172094 -0.0030137685
000060 4e 18 1d 3c b5 2d 93 bc d3 e9 c7 bb 0a 56 e4 bb
       0.009588314 -0.01796613 -0.006100872 -0.0069682645
000070 8a 0e 23 3c 6e 89 9d bc a0 5a 88 bc 35 48 81 3c
       0.009952197 -0.01923057 -0.016644776 0.015781501
000080 75 24 19 bc 59 90 b7 3c a0 da ff 3b 62 08 45 bc
       -0.009347071 0.022407698 0.0078080446 -0.012025924
000090 04 3a 22 bc 65 37 9f bc d6 8f c3 3c 83 3e f6 3c
       -0.009901527 -0.019435594 0.023872297 0.030059105
0000a0 cf 16 a2 3a 79 bd cd 3b 5b fa f0 bc 22 e4 07 bd
       0.0012366417 0.0062786904 -0.029416254 -0.03317655
0000b0 e6 ce 86 3c a2 88 ae bc 55 10 f8 bc 3b 19 0c bd
       0.016456079 -0.021305386 -0.030281225 -0.03420375
0000c0 03 96 aa 3c 61 79 6f bc f9 0b 04 3d 63 42 f4 3c
       0.020823484 -0.014616341 0.03223798 0.029816812
0000d0 97 d7 9e 3c ca c6 41 3c e3 12 b9 bc 2e cc 08 bc
       0.01938991 0.01182718 -0.022592014 -0.0083494615
0000e0 fe c1 b9 bc 6e b9 39 3a 96 dc 84 3c 64 b1 d5 bc
       -0.02267551 0.0007084821 0.016218465 -0.026085563
0000f0 f3 2e 67 3b a8 13 d7 3c a9 41 c2 bc b1 4e 34 3c
       0.0035275787 0.02625449 -0.02371295 0.01100509
000100 5e fa 31 bc 9a f9 0b 3c 2d 68 01 bb a9 03 15 bc
       -0.010862915 0.008543396 -0.0019745931 -0.009095111
000110 4e 8f dd ba de a8 69 3c 7f c7 98 bc 23 ee 3b bc
       -0.001690367 0.0142614525 -0.018649815 -0.01147035
000120 b0 d9 de 3c 05 4f e0 bc 7c 96 32 39 06 42 0c bc
       0.02720341 -0.02738143 0.00017031463 -0.008560663
000130 e0 ae b9 bc 86 a6 f0 3c c6 06 92 bc e5 21 51 bc
       -0.022666395 0.02937628 -0.017825495 -0.012764429
000140 db b4 f5 3c 40 72 55 3c f8 5d e0 bc a7 81 bd 3c
       0.029993465 0.013027728 -0.027388558 0.023133112
000150 3c 22 c5 bc f7 24 11 3d b1 a6 9e 3c 5c 11 98 3b
       -0.024064176 0.035435643 0.019366594 0.0046407413
000160 54 b0 e2 3c 6d 36 49 3c 35 00 84 bc 22 53 9b bb
       0.02767197 0.0122810425 -0.01611338 -0.004740135
000170 73 05 3e bc 7e 3f ec bc eb b2 28 bc 7c 00 53 bb
       -0.011597979 -0.02883887 -0.010296564 -0.0032196334
000180 0e 3f 01 bd 78 72 7b bc f6 dd 21 3d 7f f5 6d bc
       -0.031554274 -0.015347116 0.03951832 -0.014523863
000190 37 a1 0c bc cc 5b c5 ba 14 6d 29 3c 59 30 57 3c
       -0.0085833585 -0.0015057265 0.010340948 0.013134086
0001a0 cd d2 00 3d 60 83 04 bc 6c 4f b2 bc f0 0d f8 bc
       0.031451035 -0.008087963 -0.021766387 -0.030280083
0001b0 44 66 f3 3b f1 46 25 ba 44 00 a9 bc 35 8f fe bc
       0.0074279625 -0.00063048216 -0.02063001 -0.031074146
0001c0 33 56 1a bc c2 3c e0 3c f2 99 2e bc 9d 15 5f 3b
       -0.009419966 0.027372722 -0.010656821 0.0034039982
0001d0 ec 55 e4 3b 48 90 88 3c 0c f3 46 bc 81 ff 69 bc
       0.0069682505 0.016670361 -0.012142908 -0.014282108
0001e0 06 34 d3 3c 73 d6 b0 bb 74 0c f2 bc 0d 4d 06 3d
       0.025781643 -0.005396658 -0.029546954 0.032788325
0001f0 51 75 88 3c 39 b7 09 bd fb cf c0 bb 1a 49 9f 3a
       0.016657503 -0.033622 -0.005884168 0.0012152523
000200 f2 69 12 3c 5a c5 e8 3c 18 f6 3a 3c a5 81 a1 3b
       0.008936392 0.028414417 0.011411212 0.004928785
000210 f9 7e 8b 3b 00 e4 2b 3d b5 f5 96 3b 39 46 a5 bc
       0.0042570797 0.041965485 0.0046069273 -0.020175086
000220 bd 57 c4 39 d8 ae 5b 3b 46 35 67 bb 02 54 30 3c
       0.00037449403 0.0033520963 -0.0035279556 0.0107622165
000230 65 cd b3 3b 3e ff e8 bc 12 d3 fd bc 96 d8 81 3c
       0.0054871314 -0.028442021 -0.030984435 0.015850347
000240 4a d6 d6 bb 47 b1 cb bc 7c f3 68 39 bb 9f fa bc
       -0.006556307 -0.024864806 0.00022215949 -0.030593744
000250 be ca 3f bc a8 38 c1 bb a5 81 db bb f3 c9 1f 3b
       -0.011706052 -0.0058966465 -0.0066988044 0.0024381846
000260 a4 ce fa bc 9a 5e 02 bd 43 ed 77 3c 5f b3 86 3c
       -0.030616112 -0.0318285 0.015132251 0.016442953
000270 49 5c b8 bb 44 77 71 3c 63 3a be bb 71 90 b8 bc
       -0.0056262356 0.014737908 -0.0058053 -0.022529813
000280 3a 6e b6 bc 0d de cc bc f0 6a ba 3c 60 38 05 3d
       -0.022269357 -0.025008226 0.02275607 0.032524467
000290 96 6a 0a 3b 43 fb e2 bc 01 bb a4 3c 40 43 02 bd
       0.002112066 -0.027707702 0.020108702 -0.031802416
0002a0 7c 17 08 3c be 66 d8 3c b3 9a 04 3d 6f 57 02 3d
       0.00830638 0.026416179 0.032374095 0.031821664
0002b0 10 0c 4c bb c5 42 ae 3c 3d 8d 32 bc d4 95 b2 3c
       -0.003113512 0.021272073 -0.010897932 0.02179996
0002c0 3a 8a 1c bc de fc 04 bd 27 47 78 bb fa fc 33 bd
       -0.00955444 -0.032467715 -0.0037884207 -0.04394243
0002d0 ab 9b 64 3a d6 ab ef bc 4e 22 17 bd 4e 94 04 bc
       0.0008720706 -0.029256742 -0.03689795 -0.008091999
0002e0 7e 21 c3 bb 67 b7 7f bc 97 ac 89 3c 99 7f 64 bc
       -0.0059549203 -0.015607691 0.01680593 -0.013946437
0002f0 6b 2b 17 bd c2 96 b3 3b 5c 65 a4 3c 25 2a 4d bb
       -0.03690664 0.005480618 0.020067863 -0.0031305638
000300 0b bb f6 3b 82 e1 cc bc 8d ad 8c 3c 31 ed 1f bc
       0.0075296215 -0.025009874 0.0171726 -0.009761141
000310 09 c8 01 3c 46 f8 56 bc df b7 f7 bb 58 43 d3 bb
       0.007921227 -0.013120716 -0.007559761 -0.006447237
000320 35 5b 87 3c a7 16 86 bc e6 01 ed 3c 2e fd d8 bc
       0.016522983 -0.016368223 0.02893157 -0.026487913
000330 36 4d dd ba 55 e3 0a bd 54 5e 84 3b c3 15 59 3b
       -0.0016883973 -0.033908207 0.004039565 0.0033124543
000340 3e ab 1f bd 5e 07 8a bc da 27 63 bc be 3c 6d 3b
       -0.03898167 -0.016849216 -0.013864482 0.0036199535
000350 39 84 c1 bc a9 8c 8e bc 12 f6 28 3c d6 6e 4a bc
       -0.023622619 -0.017401056 0.010312574 -0.012355527
000360 4b 09 b9 3b d3 5c 14 bc f5 69 81 bc 94 ab 38 bc
       0.0056468598 -0.009055334 -0.015797595 -0.011271376
000370 b2 60 c9 bc 4a 40 a8 3c 4f ce 08 3d 74 52 02 bc
       -0.02458224 0.020538468 0.033399876 -0.007954229
000380 3d d2 03 bd 49 5c 95 bc 1c 4f 33 3c bf 53 5c 3c
       -0.03218292 -0.018232482 0.010944154 0.013447701
000390 fe 1a 24 3c a3 04 ac 3b ce 1b 62 bb 0e 7e 58 bb
       0.010016201 0.005249576 -0.0034501436 -0.0033034119
0003a0 5c d8 fe bb 78 20 c7 bc 0c 21 b7 bc b9 08 f1 bc
       -0.007777257 -0.024307474 -0.022354625 -0.029423105
0003b0 08 b6 6e 3c c8 91 06 bd 6f d9 05 3c 2d b9 5f 3c
       0.014569767 -0.03285387 0.008169516 0.013654989
0003c0 78 e0 59 bc a2 d0 08 bd 36 09 9a ba e2 ee 12 bd
       -0.013298146 -0.033402093 -0.0011752013 -0.035872348
0003d0 71 c8 74 ba 44 55 b5 3a eb 4c 40 bd 05 02 47 3c
       -0.00093377294 0.0013834615 -0.046948355 0.012146478
0003e0 0e 5c 36 bd 38 0d 2a bd 9b 47 dd bc 42 ba b7 3c
       -0.044521384 -0.041516513 -0.027011683 0.022427682
0003f0 11 2c c6 3c fc c2 e7 bc ee 5a b8 bc 60 ed 08 3d
       0.024190934 -0.028291218 -0.022504296 0.033429503

fc1.bias f4 [256]
000000 17 1a 88 3c 49 c3 7d 3d 6d bb 38 3d fd 8e 41 bc
       0.016614003 0.061953817 0.04510062 -0.011813876
000010 ba 83 4a 3d 63 3c 02 3d 6a c2 35 3d bd 07 1a 3d
       0.04944203 0.03179587 0.04437486 0.037605036
000020 9d b7 ab 3c c5 26 5b 3d f8 68 0b bb b0 bb b4 bc
       0.020961577 0.05350377 -0.0021272283 -0.022062153
000030 ed 70 bb bb a0 8f 13 bc 14 f2 35 bc bc 0e cd 3c
       -0.005720249 -0.009006411 -0.011105079 0.02503144
000040 74 f2 ac ba 0a c1 01 3d 3b 32 80 3d 36 eb 2b 3d
       -0.0013194815 0.031678237 0.06259581 0.04197236
000050 ef 69 d6 3c 0d 74 c7 bb 24 b7 3c 3d 5c 20 2c 3b
       0.02617356 -0.0060868324 0.046073094 0.0026264405
000060 e3 d1 80 3c 76 b8 05 3c 33 1e 4c bc bc b7 84 bc
       0.015725082 0.008161655 -0.012458372 -0.016200893
000070 ed 15 a5 3c f4 0e 59 3c ee 17 47 3d e0 d4 93 bb
       0.020152057 0.013248194 0.048606806 -0.0045114607
000080 5b 22 b9 3c 57 0d 7d 3d b8 77 80 bc 4b a6 d0 3c
       0.02259939 0.0617803 -0.015682086 0.02546992
000090 9d 6a 09 bd 79 eb 30 3d fb 8a d9 bc ad e3 8f 3d
       -0.03354894 0.043193314 -0.026555529 0.070258476
0000a0 7b 3e fe 3c 76 31 ae 3c 35 57 7d 3d 21 82 41 3d
       0.031035652 0.02126382 0.061850745 0.04724324
0000b0 94 77 dd bb ec d1 74 3b 1b a9 db 3c 4d c0 13 3d
       -0.0067586396 0.0037356569 0.026814034 0.036072064
0000c0 d1 96 bd bc 73 64 85 3c 8b 1f f0 3c 01 8c d9 3c
       -0.023143204 0.01628325 0.029311916 0.026556017
0000d0 4c f2 33 3d 77 7f 83 bc cd ad 90 bc 5e 51 dc 3b
       0.043932244 -0.01605199 -0.017661 0.006723567
0000e0 34 7e 45 bd f3 f5 78 3c 81 9d 48 3d 91 06 05 3c
       -0.04821606 0.015195358 0.048978332 0.008119241
0000f0 e4 bb 02 3d 1d 9c 9b 3c 99 4b e2 3c 68 0f 4e 3c
       0.031917468 0.018995339 0.027623938 0.012576915
000100 30 b2 82 bd 2c b7 d8 3c cf 67 a5 3a 67 f1 bb 3c
       -0.06381643 0.02645453 0.0012619438 0.022942258
000110 4c 87 b8 3c 0c a4 c7 bc 89 db 01 bd 64 1e ac 3c
       0.022525452 -0.024370216 -0.031703506 0.021010585
000120 80 6e dd bb d2 20 bd 3c 4b 5e b0 3c b2 0c 3a 3c
       -0.0067575574 0.023086939 0.021529337 0.011355566
000130 53 8b 58 bc 45 c2 41 3d 32 66 ea 3c 54 f0 46 3d
       -0.013216811 0.04730441 0.028613184 0.04856904
000140 44 bd 8e bc 67 26 cd 3b 20 fb 86 3c 89 65 6d bc
       -0.017424233 0.0062606814 0.016477168 -0.01448954
000150 68 ea 09 3d 9f c2 82 3c 5d 3b 1c 3d 08 fe 91 bc
       0.033670813 0.015961943 0.03814255 -0.017821327
000160 67 8c af b9 2b e1 af bc 2b 09 39 3d 07 2b 93 bc
       -0.0003348321 -0.021469673 0.04517476 -0.017964853
000170 cb 51 55 3c 61 19 d0 3c 6d 6c da 3c 58 19 1f bc
       0.013019989 0.025402727 0.02666303 -0.009710632
000180 0b 73 48 3c 73 78 86 3d 19 90 20 bd 75 6a de 3c
       0.01223446 0.065659426 -0.039199922 0.027150372
000190 ef 82 35 3c b5 70 2c bd 2f 35 cc 3c eb 78 df bb
       0.01107858 -0.042099673 0.024927704 -0.0068198345
0001a0 b7 66 f7 3c cb eb 00 3a dc 2b a2 3c 45 6d 0e bd
       0.030200345 0.00049179484 0.019796304 -0.034772176
0001b0 50 21 56 3c 0f 9e b1 bc 88 f4 41 3c 0d 50 3d 3d
       0.013069466 -0.021681814 0.011838086 0.04621892
0001c0 88 e8 14 3c 58 62 cb bc 92 d5 ba bb 13 a8 08 bc
       0.009088643 -0.024827167 -0.005701729 -0.008340853
0001d0 23 13 e9 3a 3b a3 10 3c 46 67 a5 bc 31 b4 79 3c
       0.0017782192 0.00882798 -0.020190846 0.015240715
0001e0 24 13 04 3d b3 99 df 3b 53 1b 77 3d 09 31 33 3a
       0.032244816 0.0068237423 0.060328793 0.0006835615
0001f0 e2 84 ed bc 1e a8 2f 3d bd c8 b2 3c 55 b9 5c bc
       -0.028994028 0.04288494 0.021824235 -0.013471921
000200 54 f4 41 3c 44 c0 ca 38 b9 42 00 3d 56 8e 21 3d
       0.0118380375 9.667923e-05 0.03131363 0.039442383
000210 e9 99 5e 3a 6e d6 bd 3c ff 46 60 3c 7c a5 ce 3c
       0.00084915623 0.023173537 0.013688802 0.025225393
000220 3c 0e 9e 3c cb 30 ba bc 2f c9 b8 3c 9e ea 64 3d
       0.019293897 -0.022728344 0.02255687 0.05588781
000230 b2 a5 ca 38 cc 0d 45 bc b7 16 1f bc 17 71 5c 3d
       9.662974e-05 -0.012027215 -0.0097100055 0.05381879
000240 ef 5c f9 bc 0e 57 1b bd 40 7d 90 bb be 4c 7e 3c
       -0.030439822 -0.03792482 -0.004409462 0.015521226
000250 2b 11 96 bc a1 f4 7f bc 11 64 a3 3c cd f8 75 bc
       -0.018318733 -0.015622289 0.019945176 -0.015012932
000260 41 2d aa 3c 7e 65 a7 bb dc ed 03 3d 52 88 95 bc
       0.020773532 -0.0051085344 0.032209262 -0.01825348
000270 47 56 13 3d 51 35 f6 3b cc 35 2e 3d 6f 0e 44 3d
       0.035970952 0.00751368 0.042531773 0.047865327
000280 8e a8 8f 3c e3 9a 1d 3a ab b2 b5 3c 05 98 9d 3c
       0.017536428 0.00060121546 0.022179922 0.019237528
000290 45 32 dd 3c 18 e6 b9 bc 9d 5a 9f 3c 2a 82 36 3c
       0.02700151 -0.022692725 0.019452387 0.011139432
0002a0 7d 42 04 bd 70 bc 13 bc 93 1a ed ba b2 59 00 3d
       -0.03228997 -0.009017095 -0.0018089585 0.03133554
0002b0 72 2d 1c 3d 3b 89 01 3d 95 01 be bc 79 05 60 3b
       0.038129278 0.031625014 -0.023194114 0.003418295
0002c0 b6 9a 40 3d 9e 86 68 3d 07 a2 68 bb 14 05 02 3d
       0.047022544 0.056769006 -0.0035496966 0.031743124
0002d0 04 e7 49 3d 2c 71 26 3d 35 83 19 bc 6a c4 d0 3a
       0.04929258 0.040635273 -0.009369661 0.0015927677
0002e0 c7 57 b4 bc b1 df 80 3b 88 2d ba ba 6b fa 02 3d
       -0.022014512 0.003932916 -0.0014204243 0.0319771
0002f0 61 0b 8f 3d 29 cb 78 bd b4 b7 d8 3c c0 f2 4c 3d
       0.06984592 -0.060740624 0.026454784 0.050036192
000300 92 7c b4 ba b8 9d fe bb 4f a8 94 bc 76 6b 8e bb
       -0.0013770035 -0.0077702664 -0.018146662 -0.0043463064
000310 09 ed 3a 3b ee 84 0f 3d 5d 99 b2 bc 74 e8 83 bc
       0.0028522632 0.03503888 -0.021801645 -0.016102053
000320 50 fe 3b bb 18 60 b5 bc db 75 87 bc ef 5f 33 3c
       -0.0028685518 -0.022140548 -0.01653569 0.010948165
000330 39 08 ab bc cf 1d a6 bc 65 d2 91 bb 81 dd 5e bd
       -0.020877944 -0.020277886 -0.00445013 -0.05441046
000340 74 d1 fa bb 74 1a ab 3d e0 20 0f bc c6 37 a4 3c
       -0.0076543633 0.08354655 -0.008735865 0.020046126
000350 b4 9b 23 3d d4 e5 5e bc 7c 0c 26 3a 81 c3 ef 3c
       0.039943412 -0.0136046 0.0006334258 0.029268028
000360 84 42 bf 3c 34 d2 9c bc 5a 83 45 3c 13 72 b4 bc
       0.023347147 -0.019143201 0.012055242 -0.022027051
000370 cb 9f 48 3c 87 52 a5 bc 0f 35 49 3d d5 35 83 bb
       0.012245129 -0.020180954 0.049122866 -0.00400422
000380 46 14 0b bd 0a 95 00 bd 1d 24 c0 3b ae e7 51 3d
       -0.03395488 -0.031392135 0.00586368 0.051246338
000390 44 53 69 bd c3 31 22 3d cd 23 94 bb 92 d4 12 3c
       -0.056964174 0.039598238 -0.0045208693 0.0089618135
0003a0 91 44 b0 bc 33 f8 b8 3c 5b 40 8e 3c 51 e4 eb bc
       -0.02151707 0.022579288 0.017364671 -0.028795393
0003b0 1c 71 93 bb 63 d8 a3 bc e0 5d 7f 3d 76 0d 96 36
       -0.0044995677 -0.020000642 0.062345386 4.4719154e-06
0003c0 95 d7 b1 bb d6 f5 c8 bc 08 9c e9 38 34 c3 92 3a
       -0.0054273107 -0.024531286 0.00011139369 0.0011197091
0003d0 90 42 00 bd 08 26 9b bc 25 ee 30 bd 6d 29 25 bd
       -0.03131348 -0.018939033 -0.043195862 -0.04032271
0003e0 ee 95 1a bc b1 75 55 bc 6b a6 bb 3c b8 f2 89 bb
       -0.00943516 -0.013028548 0.022906503 -0.0042098425
0003f0 81 57 87 bb 77 07 24 3c 83 54 a6 3c 03 a9 87 ba
       -0.0041303043 0.010011545 0.02030397 -0.0010350052

fc2.weight f4 [128, 256]
000000 2d c6 16 bd 40 fb 72 3d b4 29 7b 3d b0 6c 12 3c
       -0.03681009 0.059321642 0.061319068 0.008937046
000010 e3 b2 ff bc 8c 04 2f bc b8 ff 37 bd 0c b6 08 3d
       -0.03121323 -0.010682236 -0.044921607 0.03337674
000020 fc a5 d3 3c 9d 4b 59 3c 11 22 41 bd 10 70 26 3b
       0.025835983 0.0132626565 -0.04715163 0.0025396384
000030 d1 07 dc 3c 95 37 ed bc 8a ab 3e bd 7b 24 02 bd
       0.026859196 -0.028957168 -0.04655031 -0.03177307
000040 ff e8 2b bd f1 20 2c 3d f5 4e e4 bc fc b8 ee 3c
       -0.04197025 0.042023603 -0.02786968 0.029140942
000050 e0 a1 59 bd dd 79 ef bc 5a 42 bc bc 15 a2 b5 bc
       -0.05313289 -0.029232914 -0.022980858 -0.022172013
000060 b1 f1 88 3d a9 c7 8b 3c d8 ed 20 bc 1c 63 a3 bc
       0.06686724 0.017062979 -0.009822331 -0.01994472
000070 5a 0e 58 bc 75 7c 03 bd cc b3 91 ba 91 15 5b bd
       -0.013187015 -0.032101113 -0.0011116206 -0.053487364
000080 32 cf 4b 3b c4 e3 2b bd 06 4b 06 3d 0a 3e 11 bc
       0.003109884 -0.04196526 0.03278639 -0.008864889
000090 a9 ff fc 3c 22 3d d3 3c 10 77 8c bc 69 c6 f4 bc
       0.030883627 0.025785986 -0.017146617 -0.029879766
0000a0 85 72 ba 3b fe fd eb 3b 52 d6 92 bc e5 86 55 bd
       0.0056899213 0.007201909 -0.017924462 -0.0521306
0000b0 7b 86 10 bb 8f 43 ff bc e1 a9 82 ba 5f e6 57 bd
       -0.0022052813 -0.031160144 -0.0009968841 -0.052709933
0000c0 de 23 13 3d 13 21 6c bc fe 92 69 bc 1b ee db bc
       0.035922877 -0.014412182 -0.014256237 -0.026846936
0000d0 63 bc 04 3d e9 f1 1b bd 04 34 29 3d 14 c4 00 3d
       0.032406222 -0.0380725 0.04130937 0.031436995
0000e0 74 5c 34 bb 0a f6 84 3d 15 f9 68 3d e1 8a d6 bc
       -0.0027520927 0.06492241 0.056878168 -0.02618927
0000f0 a5 1f 8a ba 88 4e 5f bd c5 9a bb bc 94 f8 12 bd
       -0.0010537995 -0.054518253 -0.022900948 -0.035881594
000100 75 06 98 bc 7d 4a 03 3d 3a c0 3a 3d 2b 2b 5e bd
       -0.018557766 0.03205346 0.045593478 -0.054240387
000110 41 f6 85 3d 84 a6 6c 3d 0b 5a 0d 3c f6 27 35 3d
       0.0654111 0.05777599 0.008627425 0.044227563
000120 c4 54 62 bd 22 c7 d7 bb 02 54 62 bd 3f 65 2c 3d
       -0.05525662 -0.006585018 -0.055255897 0.042088743
000130 33 ce cb 3c 04 f5 5c bd f2 8a f4 3c d8 77 c6 3c
       0.024878597 -0.053944603 0.02985141 0.024227068
000140 4e d2 37 bd b0 1a 31 bd 36 4a 5b bd e5 b0 d5 bc
       -0.044878297 -0.04323834 -0.05353757 -0.026085326
000150 bc 57 ad 3c cf 53 18 3d f0 05 ab bb ad 01 1d 3d
       0.02116 0.0371893 -0.0052192137 0.038331676
000160 51 94 70 3d 5e f0 0f 3d 8f 11 38 bd f7 c1 2f bd
       0.058735196 0.03514134 -0.04493862 -0.04290959
000170 68 84 9f bc 4f 5f 3e bd 8e b9 5d bd e2 89 2f 3d
       -0.019472316 -0.046477612 -0.054132037 0.042856105
000180 d5 3e 36 bd 69 0c 47 3c f7 9f 34 bc 9f ab b5 3c
       -0.044493515 0.012148955 -0.011024467 0.022176562
000190 ff bf 86 3d 30 85 de bc 85 18 1f 3d de 0d 72 3d
       0.06579589 -0.027163118 0.038841743 0.059095256
0001a0 78 3c e8 3c 42 66 00 bd 06 cc ec bb 63 b4 5e bd
       0.028349146 -0.03134752 -0.00722647 -0.05437125
0001b0 ba 0a db 3a 74 3d 60 3d 81 86 d2 3c b8 a1 56 3d
       0.0016711571 0.054746106 0.025698902 0.05240032
0001c0 e2 93 8f bb 1f c6 95 bc a7 0d b5 3c bd 49 7b 3d
       -0.0043816427 -0.018282948 0.022101237 0.06134962
0001d0 b0 e9 8a 3d 54 d2 cc 3b 9f a8 79 3d 29 bd b5 3c
       0.067828536 0.006250659 0.060951825 0.022184925
0001e0 77 95 04 bd 0f 5f de bc ad d5 2b bd c2 5a 34 3d
       -0.032369103 -0.027144937 -0.041951824 0.044031866
0001f0 6a cf cf b8 ea 4f 2f 3b 91 d6 cd 3c da 60 2b bd
       -9.909163e-05 0.0026750513 0.025126727 -0.04184041
000200 5a b4 ad bc ca 7f 88 bd c0 fd 62 bc 31 d3 b3 3c
       -0.021204162 -0.06664999 -0.013854444 0.02195129
000210 2e 7f 3f 3d 18 d9 da 3c a1 bc 39 3d a3 c6 b5 bc
       0.046752147 0.026714846 0.045345906 -0.022189444
000220 9b 2c 13 3d 75 e5 3b bd fc 0b 50 bd 6e 83 80 bd
       0.03593121 -0.045873124 -0.05079268 -0.06275068
000230 9d c5 36 3d 26 93 9e 3d 3f ad 5d 3d 4a bb 2d bd
       0.044622052 0.0774291 0.0541203 -0.04241494
000240 31 88 91 3c 23 17 49 3d 36 34 a4 3a 42 a7 32 bc
       0.017765136 0.04909433 0.0012527767 -0.010904135
000250 23 b9 5c bc 03 46 62 3d 63 fa a9 3b 48 34 3e bc
       -0.013471874 0.05524255 0.005187319 -0.0116091445
000260 e2 a2 83 3d fc bb 17 bd fc 42 de bc 1e 1f 8a bc
       0.06427552 -0.03704451 -0.02713155 -0.016860541
000270 58 09 a3 bc 14 2e b9 3c 13 86 8d bc db 6e 7a bc
       -0.019901916 0.02260498 -0.017275846 -0.015285219
000280 c6 1e 1a bd 0b 02 69 3c 1b 69 5b bd eb f6 7e bd
       -0.037627004 0.0142216785 -0.053567033 -0.062247198
000290 70 17 f9 bc 7b 12 8c bb 82 2f 04 3c 5d b7 28 3d
       -0.030406684 -0.004274664 0.008067967 0.041190494
0002a0 30 6b d8 ba 97 50 30 bd 8c 52 27 3d a9 22 4c 3d
       -0.0016511437 -0.043045606 0.040850207 0.049837742
0002b0 70 6d eb 3c 47 96 a5 3b bd 76 9f bc 77 0a a3 b9
       0.028738707 0.005053315 -0.019465799 -0.0003109758
0002c0 87 64 54 3d 79 ac 22 3b d0 e2 40 bd bf 08 47 3c
       0.051853683 0.002482204 -0.047091305 0.012148081
0002d0 b4 e7 6a 3d 0c 9b ce 3c c5 7b 5d bd 76 7d 4a bd
       0.057349876 0.025220416 -0.054073114 -0.049436055
0002e0 7e fa b2 bc d9 23 17 bc 7a 6c 39 bd 90 ea 64 bd
       -0.02184796 -0.009224855 -0.045269467 -0.05588776
0002f0 e3 ac 84 3c 77 d4 81 3b a9 89 30 3d f3 99 59 3c
       0.01619572 0.0039620954 0.043100033 0.013281333
000300 0b 3b 6b 3d 84 72 59 3d 54 b8 a6 bc 91 ec 5f 3d
       0.057429355 0.053087726 -0.020351566 0.054668967
000310 05 e3 0b bd 16 b1 7f bc 6b 1f 42 bd db af 57 3c
       -0.03415205 -0.015606185 -0.047393244 0.013164486
000320 ce 15 4c bd 40 42 2b bd e3 cd 33 bc fa 59 19 bd
       -0.049825482 -0.041811228 -0.01097438 -0.037439324
000330 ba 2e f7 bc 72 78 ea bc 87 90 96 bb 84 6f cb 3c
       -0.030173648 -0.028621886 -0.0045948657 0.024833448
000340 c0 6b 59 bd 5e 14 29 3d cf 5d 8f 3d 4e 3e 84 3c
       -0.053081274 0.04127919 0.070003144 0.01614299
000350 e3 93 57 3d 7a 43 a5 3d dd 1c cb bc 81 57 05 3c
       0.05263127 0.08069511 -0.024794037 0.008138538
000360 2d 67 6f 3d 5e 77 b0 bb 4e bf 13 bc 4f 76 43 bd
       0.058448005 -0.0053853234 -0.009017779 -0.04772025
000370 7a 97 52 bc 09 00 34 3d 36 2d 1a bd a9 77 a7 bb
       -0.012853498 0.043945346 -0.037640773 -0.0051107
000380 8f a0 87 3d db 3e 2a 3d 35 12 35 bd 2d 43 8b 3d
       0.06622421 0.04156385 -0.044206817 0.06799922
000390 fa 8c c0 3c 25 0c 5d bd a0 dc 7b 3c 89 ed 35 bd
       0.023504723 -0.05396666 0.015372425 -0.044415984
0003a0 37 ea 80 3d 52 a2 9b bc 24 45 0d 3d 23 c6 0b 3d
       0.06294673 -0.018998299 0.034489766 0.034124505
0003b0 24 ae 82 bd 9b 18 39 bd e5 7c d2 bc 0d 52 17 bc
       -0.06380871 -0.04518948 -0.02569432 -0.009235871
0003c0 2c 86 58 bd f5 87 72 bc 17 3f 3c bc 2a c2 c7 3c
       -0.05286233 -0.0148029225 -0.011489651 0.024384577
0003d0 9b 3e 67 3d 63 30 d0 3c 03 0f 6f 3c f3 da 01 3d
       0.05645619 0.025413698 0.014590981 0.031702947
0003e0 2e 61 c8 bc d3 49 2a bd eb 2a 18 bd 26 64 72 3c
       -0.024460401 -0.04157431 -0.037150305 0.014794385
0003f0 43 fc 48 bd 1a 10 03 3d 9f a7 45 3d 93 65 7f 3d
       -0.0490687 0.031997778 0.04825556 0.062352728

fc2.bias f4 [128]
000000 ce de af bc 3f 50 e2 3d 23 04 21 bd d6 3e dc 3c
       -0.021468546 0.11050462 -0.039310586 0.026885431
000010 47 cb 8b 3c d3 f2 23 bd c8 fb d9 3c 69 66 25 3d
       0.017064704 -0.040026497 0.026609316 0.04038087
000020 eb 94 1f 3d f8 32 91 3c 51 9f 5e 3c 31 b9 45 bd
       0.03896038 0.0177245 0.013587789 -0.048272315
000030 ec f3 38 3d 14 a2 78 3d 0e cb 2e 3e a6 67 27 bd
       0.045154497 0.060701445 0.17069647 -0.04087033
000040 50 ca 21 bd 37 20 02 bd 7d 10 9c bc 8c 54 87 3b
       -0.03949958 -0.031769004 -0.019050831 0.004129952
000050 ab 95 2f 3d 1c d2 d7 3c e8 13 f2 3d b2 1f fb bc
       0.042867344 0.026345305 0.11820203 -0.030654762
000060 a8 a8 4e 3c 47 7a 88 3d 31 2d fa 3c 31 12 51 bd
       0.012613453 0.066639476 0.030539127 -0.05104274
000070 af ff c3 bc 24 af a5 3d 52 1d 4f 3d f2 d2 a8 3c
       -0.02392563 0.08090046 0.05056507 0.020608399
000080 0e 0f 00 bd 69 ec de 3d 74 f9 17 bd b4 47 2e 3d
       -0.031264357 0.108849354 -0.03710313 0.04254885
000090 d0 b3 e0 bc 80 27 f1 3d 30 99 16 bd cc d4 8d 3c
       -0.027429491 0.11775112 -0.036767185 0.017313384
0000a0 01 65 86 3d d4 c8 82 bd 03 bf f7 3b 54 d0 97 bc
       0.06562234 -0.06385961 0.007560612 -0.018531956
0000b0 e5 38 7e 3d b2 bb 2c 3d 77 44 2f 3d cf 0a 01 3c
       0.062065978 0.042171188 0.042789903 0.007876112
0000c0 80 e6 a4 3d 28 e9 72 3d 50 f0 9f bd cb ee 12 3d
       0.08051777 0.059304386 -0.07809508 0.035872262
0000d0 6a a2 11 3d 69 51 60 3c 45 1b e6 3c f4 1d e9 bc
       0.03555528 0.013691285 0.028089175 -0.028456666
0000e0 91 98 c3 3d 58 b2 1b 3d a5 b4 df 3c 45 04 7f bd
       0.09550584 0.03801188 0.027307818 -0.06225993
0000f0 7c ad 3f bd b9 e6 f7 3d 45 30 97 3d 23 72 cc 3d
       -0.046796307 0.12104554 0.073822536 0.09982707
000100 81 08 fb 3c e5 fc 05 3d fb c8 8a 3a 7c a0 33 3b
       0.030643703 0.032711882 0.0010588461 0.0027408889
000110 40 51 52 3c 5e 91 ef 3c a0 2c d1 bb 29 5e ef 3d
       0.012836754 0.029244121 -0.0063834935 0.116878815
000120 61 11 a2 3c fd 7e e4 bc 81 fe 1c 3d ce f6 b6 bd
       0.019783678 -0.027892584 0.03832865 -0.08933793
000130 fc a3 c3 bc fb 2a 06 b8 4a 4d 7a bd 96 cb 73 3d
       -0.023881905 -3.198812e-05 -0.061108865 0.059520327
000140 f6 c2 1c bd 31 65 4d bc 98 a4 18 bc 69 3d d7 3d
       -0.038271867 -0.012536333 -0.009316586 0.1050976
000150 5c 2b 67 3c 24 ef 05 bd 60 92 17 bd 05 2e 17 bd
       0.014109459 -0.032698765 -0.03700483 -0.036909122
000160 31 2f 4a 3d 86 6c 99 bd 37 fe 19 3d 22 ef 59 bb
       0.04936141 -0.07491402 0.037595954 -0.0033254107
000170 d9 04 80 bd a8 3d 88 bc 66 76 38 bd b5 51 0e bc
       -0.062509246 -0.016630962 -0.04503479 -0.008686473
000180 a3 56 8d 3d 87 1b 2b bd 3f e5 de 3d 83 96 2a bd
       0.0690129 -0.0417743 0.10883569 -0.041647445
000190 cf b9 1d bc 07 83 fa bc b3 aa e9 3c 37 0b 00 3e
       -0.00962682 -0.030580057 0.028523779 0.12504278
0001a0 b6 ff 93 3c 3e 14 1b bc d1 fb 0e 3d 38 33 41 bc
       0.018066268 -0.009465275 0.03490812 -0.011791997
0001b0 d9 a1 13 3e 31 0e 24 3d af 86 81 3d fe 2c 90 bc
       0.14417209 0.040052596 0.06324517 -0.017599579
0001c0 68 d0 bd 3c d2 37 13 bd d1 90 05 3e 7b 4a bc 3d
       0.023170665 -0.035941906 0.13043524 0.091938935
0001d0 e3 82 cb 3d 8d ea 62 bc 59 79 4a 3d dc 5e af 3d
       0.09937074 -0.013849867 0.049432132 0.08563015
0001e0 81 c2 a1 bd dc ed 96 3d 3d 63 cd 3d 67 66 2f 3c
       -0.07898427 0.07369587 0.10028694 0.010705567
0001f0 1c 03 21 3d 63 2b 91 3c 72 f2 3d bd c6 c3 20 3d
       0.039309606 0.017720884 -0.046373792 0.039249204

fc3.weight f4 [10, 128]
000000 ed 6f 9f bd d5 be 52 3e bb 28 33 3d 0f c8 0e 3e
       -0.0778502 0.20580609 0.043740015 0.13943504
000010 04 ef 8e bd ac 4b e7 bd d5 ed 41 bd ff 21 92 3d
       -0.06979182 -0.1129373 -0.047345955 0.071353905
000020 9b 0b 1f be 51 44 0a 3e d4 00 78 3e 20 75 95 3d
       -0.15531771 0.13502623 0.24219066 0.072977304
000030 99 5c 8e be eb bc e8 3d c5 d1 de bd d5 47 84 3e
       -0.2780502 0.11364158 -0.10879854 0.25836053
000040 ec a9 b5 bd 84 02 2b bd 30 1f 1c 3e 82 d5 ab be
       -0.08870301 -0.041750446 0.15246272 -0.3356133
000050 63 8e f1 bd aa 1b e2 3c 5f 2a b6 bd 74 93 95 3d
       -0.11794736 0.027601082 -0.088948004 0.07303515
000060 10 b6 f0 3c f4 b4 12 3e 90 89 1e 3e dc d6 60 bd
       0.02938369 0.1432684 0.15482163 -0.054892406
000070 02 b6 d9 3c 32 56 a4 bd 8f b2 10 3d 69 6b 8d 3c
       0.026576046 -0.08024253 0.035326537 0.017263131
000080 46 3f 75 be 0f e7 a0 3d b3 9e 80 bd f0 d4 3a 3e
       -0.23949918 0.07856571 -0.062802695 0.18245292
000090 be a6 93 bd de f6 57 bd 3d f8 83 bd e2 0d e6 bc
       -0.07209538 -0.052725665 -0.06443832 -0.028082792
0000a0 e7 72 ec 3d f4 a5 88 bd e3 2b d4 3d e9 82 03 3e
       0.115453534 -0.06672278 0.10359933 0.12842907
0000b0 a4 a8 3d 3e 3a 64 83 3d 06 56 0d be 9f 8d 68 3d
       0.18521363 0.06415601 -0.13802347 0.056775685
0000c0 9a ab e1 bd 43 a3 1d 3d 7d ca 01 3e 3d 36 a1 3e
       -0.110190585 0.038485777 0.126749 0.31486693
0000d0 8c f2 2e be 32 77 5c bd a6 96 ce bc 72 da 5c be
       -0.17084712 -0.05382461 -0.02521832 -0.21567705
0000e0 8b 28 3b bd 20 95 2c be 28 9e 39 bd 6a 5f b0 3d
       -0.04569296 -0.16853762 -0.045316845 0.08611949
0000f0 ac 22 83 3c 71 7a 02 be e2 e4 93 bd 06 d8 25 be
       0.016007744 -0.1274202 -0.0722139 -0.16195688
000100 19 e8 11 bc 05 61 82 bd f6 2c 9b 3b cb 8e 1b 3e
       -0.008905434 -0.06366161 0.0047355844 0.1519119
000110 6a f3 ce bd f7 5a 24 be 01 6a 3c 3d 82 9b 19 be
       -0.10105021 -0.16050325 0.04599953 -0.15000728
000120 a6 dc 75 be 12 c7 17 3e ae 4a 4e be af a9 15 3e
       -0.24009952 0.14822033 -0.20145676 0.1461551
000130 2c d6 b0 bd 46 20 16 bc bf ce 28 3c 32 10 e7 3d
       -0.086346 -0.009162968 0.010303198 0.11282386
000140 88 81 51 3e c0 c4 82 be 90 41 de bc 98 17 93 be
       0.20459569 -0.25540733 -0.027130872 -0.28728938
000150 20 5a 3c 3e 8e 11 29 bd 07 de 7d bd e8 c3 81 3d
       0.18393755 -0.041276507 -0.06197932 0.06336194
000160 fe ee cf bd 1b ba fa 3d d4 8b 47 be f1 21 c9 bd
       -0.10153006 0.12242528 -0.19486934 -0.09820927
000170 08 10 53 bd 04 e8 cd 3c f6 19 cd 3c 77 2a 92 3e
       -0.05152896 0.025135048 0.025036793 0.28548023
000180 7a 39 35 be 89 7b 61 3d 1b ab 19 be 62 19 4a bd
       -0.17697707 0.055049453 -0.15006678 -0.049340613
000190 fd 6e dd 3d f3 c7 a3 bd 44 d9 1a bd da b5 8f bb
       0.10812185 -0.07997122 -0.037804857 -0.004385692
0001a0 ce 78 be bc 1a 51 0e be c7 33 99 bd 24 ca a3 bc
       -0.023250964 -0.13898125 -0.07480579 -0.01999385
0001b0 d8 c7 27 3e 03 01 6d be 9c 18 9c be c9 c8 cd 3c
       0.16384828 -0.23144917 -0.30487525 0.025120156
0001c0 3f 90 dd bd 0f f7 71 bd 98 cc 0c bd 34 ae b0 3c
       -0.108185284 -0.059073504 -0.034374803 0.021567442
0001d0 41 66 02 bd ac 8d b5 bd c9 c0 36 3e 05 ed 86 3e
       -0.0318358 -0.088649124 0.17846979 0.26352707
0001e0 f1 c2 20 3e 2f 3a 0b be 64 60 f3 bc e0 4b c6 bd
       0.15699364 -0.13596414 -0.029709049 -0.09682441
0001f0 24 4c 90 bd c1 3f 62 be b0 97 0e 3b 7c 6b d9 bd
       -0.07045773 -0.22094633 0.0021757893 -0.10616204
000200 1c ff 70 bc df 10 b2 bd c6 94 23 3d 70 29 4c be
       -0.01470926 -0.08694624 0.039936803 -0.19937682
000210 4b 45 84 3d 72 2d 17 be d4 a5 7a bc 1c 0d 09 be
       0.06458529 -0.1476343 -0.015298326 -0.13383907
000220 d5 21 0a be 01 9b 95 be 80 48 71 be c2 60 cb bc
       -0.13489468 -0.2921982 -0.23562813 -0.024826411
000230 dd 74 8d bc 58 44 0a be d7 20 84 3e 43 ac cc bd
       -0.017267639 -0.13502634 0.25806305 -0.09993794
000240 7b fe 10 3c b7 a4 3b bd d3 a9 e9 bc af 48 87 3e
       0.008849735 -0.04581138 -0.028523361 0.2642264
000250 5a 0c d0 3d d6 2f 82 3c 74 69 ea 3d 1e 01 00 be
       0.10158606 0.01589195 0.11445895 -0.12500426
000260 06 80 4e 3e 00 d7 81 bd 04 ed 5f be 70 46 32 3d
       0.20166025 -0.06339836 -0.21867758 0.043524206
000270 c4 66 5f bd a1 5e 38 be 58 32 94 be 5d be 62 be
       -0.054541364 -0.18004848 -0.2894466 -0.2214293
000280 7e 2e 2f be 6c f0 50 bd 6a 75 27 3d af bd 20 3d
       -0.17107579 -0.051010534 0.04088346 0.039243396
000290 0d 01 24 be 13 2b b5 3d 06 d1 80 bd cc bf 46 bd
       -0.16016026 0.088461064 -0.06289868 -0.048522756
0002a0 11 9b df 3c d6 c5 86 bd 96 45 3c be 46 c4 0e be
       0.027295621 -0.06580703 -0.1838592 -0.1394206
0002b0 df f2 a0 bd 7c 7a 2d 3e a8 a4 81 bd fd fe 12 3e
       -0.07858824 0.16941255 -0.06330234 0.14355083
0002c0 2d 55 14 3e c8 e9 09 3e 9f 1b f6 bd ea 12 d0 bd
       0.14485617 0.13468087 -0.12016987 -0.101598576
0002d0 1d 7b ef 3c 47 0a f3 3d 3b 95 45 bd f5 b3 0c 3d
       0.02923351 0.118671946 -0.04823802 0.034351308
0002e0 07 de 84 bd 4e bf 39 be 5a f0 bc bd 11 54 94 bd
       -0.06487661 -0.18139383 -0.09225531 -0.07242597
0002f0 d3 b1 40 bd 15 86 7c 3e 34 ce dd 3c 81 f2 93 3e
       -0.047044586 0.24660523 0.027075864 0.28895953
000300 74 9a 96 3d 34 24 5c 3e e0 a9 71 3d ac 9a 25 bd
       0.07353678 0.21498185 0.058999896 -0.04043071
000310 22 d3 c6 bd 27 01 e8 39 2c af 87 be 13 fd 8e 3d
       -0.09708239 0.00044251347 -0.26500833 0.06981864
000320 d4 82 b6 3d 9a 69 1a be 11 e3 f8 bd ee 05 17 be
       0.08911672 -0.15079346 -0.121526845 -0.14748356
000330 a3 76 17 3e e2 7d bb bd 1f 95 07 be 4d d1 85 3d
       0.1479135 -0.091548696 -0.13240479 0.065340616
000340 7c ce 3e be 1b de 18 3e 73 84 61 3c 10 55 88 3e
       -0.18633455 0.14928477 0.0137644885 0.26627398
000350 6a 31 58 be b2 91 84 3d 69 a0 05 3d c0 cb 12 b9
       -0.211126 0.06473102 0.032623682 -0.00013999548
000360 26 ee f6 3d 61 39 32 be c0 e3 0c 3e b1 75 87 3d
       0.12057142 -0.17404701 0.13758755 0.06614245
000370 f2 8e bd 3c b7 c0 37 3d 55 24 cd 3d e6 c6 87 be
       0.02313945 0.04486152 0.100166954 -0.26518935
000380 1f 66 17 be d2 fd 3c be 2f 25 77 3e 25 c6 f5 3c
       -0.1478505 -0.184562 0.24135278 0.03000171
000390 4e 7d 45 3d 05 12 13 bc e4 3b 63 3e e2 a9 ad bd
       0.048215203 -0.008976464 0.22190815 -0.08479668
0003a0 0e ce 3d bd 16 b7 5d bd df 69 30 3e 0c 9b 82 3d
       -0.046339087 -0.054129682 0.17227887 0.06377229
0003b0 cd cc 66 3e 7a e0 90 3d 63 cd e3 3d 36 18 90 bc
       0.22539063 0.070740655 0.11123159 -0.01758967
0003c0 a3 9b 7a be ab 5c ac 3d f4 99 4b 3e 56 97 89 be
       -0.24473433 0.084161125 0.19882947 -0.26873273
0003d0 44 6a 53 3e fc f6 a4 3b 1a ac 9d be 7e 59 b9 bd
       0.20646006 0.0050343256 -0.30795366 -0.090502724
0003e0 1c c9 3a 3a bf 13 da bd 01 fc 52 3e a2 87 f6 3d
       0.00071253045 -0.106482975 0.20603944 0.12037589
0003f0 87 ec 38 3e 66 0a 6d 3e 95 9e 85 3b 7b b1 38 bc
       0.18058978 0.23148498 0.0040777423 -0.011272783

fc3.bias f4 [10]
000000 02 71 b4 bc 8e 40 e5 3d 51 a1 61 bc 75 f9 d5 bd
       -0.022026543 0.111939535 -0.013771371 -0.10447971
000010 ba af d9 3d 64 a2 57 3e 8e 2f 43 3d 23 a8 1d 3c
       0.1062922 0.21058041 0.047652774 0.009622606
000020 66 f7 69 be d3 ba 95 bd
       -0.22848281 -0.073110245
